hand-gesture-recognition-mediapipe-main/model/keypoint_classifier/keypoint_classifier.tflite (tflite, 7184 bytes, 6 tensors)

sequential_3/dense_10/BiasAdd/ReadVariableOp/resource f4 [10]
000000 8d ae 0e be 25 eb 51 3f f9 cb 3a bf 83 3f 0b 3f
       -0.13933773 0.8199943 -0.7296749 0.54393786
000010 d1 8e 88 3f 9d f9 6b 3f 98 8d 49 3f ba fa 3f 3f
       1.0668584 0.92177755 0.7873168 0.74991953
000020 74 42 0e bc 2c 07 ed be
       -0.008682836 -0.46294534

sequential_3/dense_11/BiasAdd/ReadVariableOp/resource f4 [22]
000000 a2 f6 ae be 5a cb ea bd 4a 97 be bf 4a 9f f3 3e
       -0.3417254 -0.114645675 -1.488992 0.47582465
000010 ee 85 f4 3e 1e b5 eb be 38 31 40 bf a4 95 89 3f
       0.4775843 -0.4603662 -0.750751 1.0748792
000020 1a 98 e6 3e 8d 89 00 bf 59 e9 b1 3f 63 8c 30 be
       0.4503792 -0.50209886 1.3899337 -0.17241053
000030 a5 93 47 be a3 a8 02 bf ff ec 8c 3e ba 1b 5d be
       -0.19489916 -0.5103857 0.27524564 -0.21592608
000040 dc 3b 3f be 37 ec ca 3e d0 6e d0 3e f3 c4 fc be
       -0.18675178 0.39633343 0.40709543 -0.4936901
000050 1d 24 cc be e7 bc 85 3e
       -0.39871302 0.26120684

sequential_3/dense_9/BiasAdd/ReadVariableOp/resource f4 [20]
000000 3c f2 a0 be e5 b6 0d bf 95 fb 29 be 6d 72 42 bf
       -0.3143481 -0.553572 -0.16599877 -0.7595585
000010 23 35 e9 be ec 97 a2 be f3 96 92 bf 93 97 29 bf
       -0.45548353 -0.31756532 -1.1452316 -0.6624691
000020 dc be 63 be 29 12 46 be d4 96 67 bf 13 5c 2d be
       -0.22240776 -0.19342865 -0.9046452 -0.16929655
000030 ba 76 3d be e9 36 86 bf 16 5c bd be f6 68 29 bf
       -0.18502322 -1.0485507 -0.36984318 -0.6617578
000040 09 35 7d be 6a b9 9a bf a3 65 a5 bf 95 34 80 bf
       -0.24727263 -1.2087834 -1.2921642 -1.0016047

sequential_3/dense_10/MatMul f4 [10, 20]
000000 b7 cc 59 3e ff 6c 0e 3f 9d bf 8e 3f 79 bb 7c 3f
       0.21269499 0.55635065 1.1152226 0.9872356
000010 8d d1 bd 3e 19 17 81 be 43 dc 04 bf 99 3d da 3e
       0.37073937 -0.25212935 -0.5189859 0.4262512
000020 9f 52 f2 3e f5 37 a7 3f c2 e4 c3 be 23 67 03 3e
       0.4732866 1.3063952 -0.38260466 0.12832312
000030 fe 51 b0 3d 9c 0e 2c 3e df 44 0d bf 94 16 2b 3e
       0.08609389 0.16802448 -0.55183214 0.16707832
000040 c9 0b 26 3f cb d8 4c 3e f2 09 f7 be cf 81 0e 3e
       0.6486173 0.20004575 -0.48249775 0.13916706
000050 f2 15 11 3e ac 1b 99 3f e2 54 fe 3f 59 5e 2b 3f
       0.14168528 1.196157 1.9869654 0.6694084
000060 2b d3 a8 be 37 97 51 3e c0 7e 81 be 08 6c ce bd
       -0.32973608 0.2046784 -0.25292015 -0.10079199
000070 1c 00 5c bc de 77 0d 40 08 a4 82 3e ce 44 00 3f
       -0.01342776 2.210441 0.2551577 0.5010499
000080 36 4a b7 3c 67 45 df 3e 96 6d 55 bd 48 61 15 3d
       0.022374254 0.43607637 -0.052106462 0.036469728
000090 40 7c a1 3f 7b 5d 9b 3d 71 fa 6c be 85 77 87 3d
       1.2616043 0.07586189 -0.23142411 0.066145934
0000a0 43 46 de 3e e2 98 2e 3f 2c 8c 2a 3e dc 79 9a 3e
       0.4341298 0.6820203 0.16655034 0.30171096
0000b0 1f f9 6e be 0e de e5 3e c7 62 8f 3f 46 c9 4e 3f
       -0.2333722 0.44895977 1.120202 0.8077587
0000c0 97 e0 90 be 6e 77 7b 3e aa da 37 3f fa 26 b1 be
       -0.28296348 0.24557278 0.7181803 -0.3460005
0000d0 9c 82 08 3f 71 f5 91 3f 25 fa 08 3e a6 fa 04 3f
       0.53324294 1.1403028 0.13376673 0.5194496
0000e0 97 40 16 3f 9d bf 51 3f 21 e7 85 3f 66 4d 0e 3f
       0.58692306 0.81933004 1.046116 0.5558685
0000f0 d9 18 87 3f 41 20 8f 3f c9 9b 83 3f aa 9a e9 3e
       1.0554458 1.1181718 1.0281917 0.45625812
000100 4c bf be 3e 44 89 9d 3f c3 fd a8 3f 2f 89 13 be
       0.37255323 1.2307515 1.3202442 -0.144078
000110 4a 3e a7 3d 6c e7 80 3f c7 5d 92 bd 99 7e 32 be
       0.081661776 1.0070624 -0.07146793 -0.17431106
000120 7e d0 93 3f 56 e5 dd 3f d6 b0 eb 3d 5d 38 5a bd
       1.1548002 1.7335613 0.11508338 -0.05327641
000130 89 f1 a4 3e a0 96 7b bc 04 02 d6 3f 90 e2 1b bd
       0.32215527 -0.015355736 1.6719365 -0.038057864
000140 f6 c4 c3 3e ab 4e 91 3e 81 35 81 bd 03 e1 82 3e
       0.38236207 0.2838033 -0.06309033 0.25562295
000150 2d a1 25 bf cd 0d c6 3e d6 59 48 bf fd 7e 22 3f
       -0.6469906 0.38682404 -0.7826208 0.6347502
000160 29 51 f8 bd 71 cb 01 be 2a 85 bb 3d ef 68 a5 3f
       -0.12124855 -0.12675263 0.091562584 1.2922648
000170 10 9d da 3e f0 78 82 bf 72 17 d9 bd 48 46 fc 3e
       0.42697954 -1.0193157 -0.10600175 0.4927237
000180 f3 6e 05 3f cd 7c cf 3e 3d 71 47 bf 7f 35 c1 3e
       0.5212242 0.40524903 -0.7790716 0.37736127
000190 a4 fc cb 3e da 83 9e 3e 46 6a 3d bf 62 ee c2 be
       0.39841187 0.3095997 -0.73990285 -0.38072497
0001a0 9a cb cb 3e ce ab 0d bd 5f cf 44 3f 38 07 38 3f
       0.39803773 -0.034587674 0.76878923 0.71886015
0001b0 9b e6 69 3f 0d 1a 4d bf c0 a3 89 bd e8 80 2d 3f
       0.913675 -0.80117875 -0.06720686 0.6777482
0001c0 d7 39 f4 3e ab b9 f0 be d9 aa 9c be 35 0f 48 3f
       0.47700378 -0.47016653 -0.30599096 0.78148204
0001d0 62 d8 87 be 57 f1 bb 3b c1 ac cb 3e ae 0d 97 3f
       -0.26532274 0.005735557 0.39780238 1.180105
0001e0 c5 ef 93 3d 17 ec a6 bd 96 29 c6 3d 1a e4 61 3e
       0.07223467 -0.08150499 0.09675901 0.2205967
0001f0 c5 17 d0 3f bb 04 9c be ac 61 ea 3e 8a 0f 54 3f
       1.6257254 -0.3047236 0.45777643 0.8283621
000200 a9 f0 6d 3f 9e 93 94 3d d8 cb 51 3f af c7 fb bd
       0.92945343 0.07254718 0.81951666 -0.12293946
000210 eb c4 29 3e 45 04 42 bf 02 26 c0 3e 37 03 4a 3f
       0.16579024 -0.75787765 0.37528998 0.78911155
000220 1d 40 38 3e 6d ed 54 3f d2 0c 54 3e 15 a2 6b 3f
       0.17993207 0.83174783 0.20708016 0.9204419
000230 59 e9 8b 3e fe dc 9f 3d f5 74 9f 3e 80 ad 2a be
       0.27326468 0.07805823 0.3114392 -0.16667747
000240 e1 91 a7 3d b8 15 50 3e 8e 17 54 bf ef e2 a3 3e
       0.08182121 0.20320785 -0.8284844 0.32009074
000250 79 13 03 3d 82 01 ab 3e 0b f4 08 bf 77 2a 48 3f
       0.032000992 0.33399588 -0.5349738 0.78189796
000260 86 d9 ba 3e 1c 2b 51 bf e6 7d 51 3f 53 73 0b 3f
       0.36494082 -0.81706405 0.8183273 0.54472846
000270 72 af a8 be b0 10 46 be 0f 96 d8 be 08 30 bf 3c
       -0.32946354 -0.19342303 -0.42301986 0.023338333
000280 1b 21 8a 3e c3 b1 8d 3e 4c 1f 9c be 8f 8a 96 3f
       0.26978382 0.27674684 -0.30492628 1.1761035
000290 49 25 46 bd a2 a7 94 3f 6f 3e 87 3e 98 be bb 3e
       -0.0483754 1.1613657 0.2641482 0.3666885
0002a0 17 10 23 3d 18 c9 d3 be cb 33 35 be 95 39 e1 3e
       0.039810266 -0.4136436 -0.17695539 0.43989244
0002b0 6e de 8a 3e 9b a8 b0 3f 13 6d d5 3d c2 b8 d5 3e
       0.27122825 1.3801454 0.10421195 0.41742522
0002c0 46 a0 aa be a4 db 21 3c 05 fd d4 3e 25 37 ba 3e
       -0.33325404 0.009879027 0.4159929 0.36370197
0002d0 28 a7 b7 3c 52 41 be 3d ca 74 12 3e 8f c0 0f 3f
       0.022418573 0.092898026 0.14302364 0.56153196
0002e0 59 2d 8d 3e 62 ae 3a 3f d9 b1 e7 3e 4d 65 97 3f
       0.2757366 0.7292234 0.45252874 1.182779
0002f0 4c 6b b9 3e ac 95 0b 3e da 94 95 bd 53 3d 18 3e
       0.36214674 0.13631314 -0.07303782 0.14867143
000300 4e 53 c0 3d 0c a5 05 bf 5c 79 ac 3f 46 b5 cf 3f
       0.09390889 -0.52204967 1.3474536 1.6227195
000310 84 00 15 3d d1 d8 0f bf 97 19 88 3e b3 01 89 3f
       0.036377445 -0.5619021 0.26582024 1.0703644

sequential_3/dense_11/MatMul f4 [22, 10]
000000 6c f7 e3 be 30 a5 92 bf 71 48 87 3e ef e6 e0 3d
       -0.44524705 -1.1456661 0.26422456 0.10981547
000010 e2 3c cc be 58 f7 12 bb 29 15 0b 3f 5b 97 b1 3d
       -0.398902 -0.002242526 0.5432916 0.08671447
000020 1b 5e 66 be 58 42 d1 3e db cf 8c be 22 cf ec 3e
       -0.22496836 0.4087093 -0.2750233 0.4625178
000030 40 ff d5 3e a4 28 d9 3e 49 72 82 be a7 ff 93 bf
       0.41796303 0.4241382 -0.25477818 -1.1562394
000040 83 c3 1f be 3f 1a c6 be fe 9c bf 3d 16 e1 75 3e
       -0.15601926 -0.386919 0.09356116 0.24011645
000050 43 87 4b be 00 18 79 3e 41 4c 92 3f 62 c5 e4 3b
       -0.19875817 0.24325562 1.1429521 0.0069815377
000060 88 df 52 3e ab 89 17 bf 68 d6 ba be a0 87 37 bf
       0.20593083 -0.5919444 -0.36491704 -0.7169132
000070 a0 89 b8 3d 63 1c 1c 3f 47 de b2 bf 65 f0 3a 3e
       0.09010625 0.60980815 -1.3974084 0.18255766
000080 b3 9b 13 bf c9 22 33 bd 34 5e 0d 3f 3a 42 87 3e
       -0.57659453 -0.043734346 0.5522187 0.26417714
000090 b8 72 59 bf 29 be e5 3d 71 f9 12 3f 22 c7 23 bf
       -0.8494067 0.11217911 0.5741187 -0.6397573
0000a0 b5 cb f4 be 6b df 56 be 0f 1e b1 3e d5 6d a1 3e
       -0.47811666 -0.20983665 0.34593245 0.31529108
0000b0 3e 40 8c be 6d e9 f5 3d 93 68 c4 be ce 2f 4a bf
       -0.27392763 0.12007413 -0.38361034 -0.78979194
0000c0 d9 67 a8 3e a0 4b b4 be 9d 9d 8a bd 83 fa 4d bf
       0.3289173 -0.35213947 -0.067683436 -0.80460376
0000d0 91 bc 20 3d 86 b3 89 bf b9 29 6e be 52 a5 b8 bf
       0.03924233 -1.0757911 -0.23258103 -1.4425452
0000e0 01 0b 20 bf 16 d8 e3 be f5 2e 0f be 6a f8 ad bd
       -0.6251679 -0.44500798 -0.13982756 -0.08494647
0000f0 b4 c1 17 bf ab cd 09 bf 52 49 8f be 70 5c e8 be
       -0.5927994 -0.5382945 -0.27985626 -0.45383024
000100 2a bd 20 3f 3c 66 98 3b a2 27 6f bd b0 dd 30 3f
       0.6278864 0.004650859 -0.058387406 0.6908827
000110 6a b6 20 3f 50 b1 c0 3e aa 42 d3 bf 7a d8 9d be
       0.6277834 0.3763528 -1.6504719 -0.3082922
000120 1b 99 98 bf 47 37 7c bd f3 dd 03 3f 6c 38 d9 3e
       -1.1921724 -0.061576154 0.5151054 0.4242586
000130 b7 5b 4a 3d 49 68 0e 3f 98 fa 8b bc 2c 87 a5 bf
       0.049403872 0.55627877 -0.017087266 -1.2931876
000140 74 bf c1 3e 27 8e 1b 3f db 60 2f bf ae 58 d5 3d
       0.3784138 0.6076378 -0.68507165 0.10417305
000150 25 65 ff 3e 23 01 04 bf a4 0a 8c bc 08 83 c4 3d
       0.49881855 -0.51564234 -0.017094918 0.09595305
000160 67 2d b1 be f2 11 a6 bf e6 4b e6 3e fd ef 07 3f
       -0.34604952 -1.2974226 0.4497978 0.5310057
000170 a9 06 18 be a6 32 19 be 10 f8 77 3e 48 c7 99 be
       -0.1484629 -0.14960727 0.24215722 -0.30034852
000180 33 0e 44 3c 25 86 d5 3e d9 e4 c7 be 17 f1 22 3f
       0.011966276 0.41703907 -0.39041784 0.63649124
000190 ae 1b 54 be 45 27 b2 bd d0 0a 71 bf 1a 35 c6 bf
       -0.20713684 -0.08698896 -0.94157124 -1.5484955
0001a0 91 a0 ce 3e ec 7e 0a be d6 8e 61 3f 7c 92 b4 3e
       0.40356877 -0.1352498 0.88108575 0.3526801
0001b0 e6 3b d8 bf f9 70 11 bf f5 10 f4 3e 3a 7a 2d 3f
       -1.689328 -0.5681301 0.47669187 0.6776463
0001c0 60 35 df be 61 19 35 be 74 87 ba bd ad b8 10 be
       -0.4359541 -0.17685463 -0.09107867 -0.14132948
0001d0 b7 75 cd 3e 07 b3 7c bf 58 51 82 be 38 72 a1 bd
       0.40128872 -0.98710674 -0.25452685 -0.078831136
0001e0 b9 93 40 3d 7f 4a 95 bf 9f 06 1f be 0d 4e 02 3f
       0.04701588 -1.1663359 -0.1552987 0.50900346
0001f0 e2 ea 72 bf 61 71 e7 3e 63 a6 f1 bc 1f 9a c0 be
       -0.9488965 0.4520369 -0.029498285 -0.37617585
000200 64 7c 2c 3e 12 d0 33 bf 81 7c 9d bd 37 c1 8b be
       0.16844326 -0.70239365 -0.07689763 -0.2729585
000210 5c a7 a4 3d 41 24 f4 3e 09 f3 4c bf d7 21 98 3e
       0.08039734 0.4768391 -0.8005834 0.29713318
000220 4d 04 a9 3e 8a f4 2c be b6 bb 70 bf 22 45 cb bd
       0.33011094 -0.16890159 -0.94036424 -0.099252954
000230 b8 2a a7 be b7 ee 05 bf cc d1 58 bd 46 e6 79 3e
       -0.3264978 -0.52317375 -0.052934453 0.24404249
000240 2d 64 87 bf 87 2a 2c 3f c6 92 4b be ea 61 84 be
       -1.0577446 0.6725239 -0.19880208 -0.25855953
000250 3c 4e eb 3e 4a 89 0a bf 9e 80 57 bf 9f 5f 74 bf
       0.45958126 -0.54115736 -0.8418063 -0.95458406
000260 83 ff 22 be 83 38 97 3d 56 2a 17 bf f9 3f c8 3e
       -0.15917782 0.07383826 -0.59048975 0.39111307
000270 94 07 84 3e 4f 2e a5 3e 0f 2e 42 3e f3 d9 51 3e
       0.25787032 0.32261893 0.18962882 0.20493297
000280 6e 6c 71 3e 61 04 2e 3f 95 ce 8c bf ca cf bb 3e
       0.23576519 0.6797543 -1.1000544 0.36681968
000290 7c 39 80 3e e5 21 16 3d 08 f4 b0 bf 7b 59 49 3f
       0.25043857 0.036653418 -1.3824472 0.7865216
0002a0 e6 09 91 bf 62 8b c6 bf 5e 67 a1 bd 5b a9 af 3e
       -1.1331146 -1.5511286 -0.07881044 0.34308895
0002b0 96 b2 71 3e 03 4f 19 3f af 9c 0a bf 97 27 8e bf
       0.23603281 0.5988619 -0.5414533 -1.1105832
0002c0 8c fd 8d bf df 99 93 3d a9 e6 3b be f9 93 c0 3e
       -1.1093001 0.07207083 -0.18349709 0.37612894
0002d0 f5 f1 09 3f ee 4c ec 3e bf bf 09 bf 77 88 e9 3e
       0.5388482 0.46152443 -0.53808206 0.45611927
0002e0 5f b9 2b 3e fe 0f 41 bf c3 0e c6 bf 25 2b 8e be
       0.16769932 -0.7541503 -1.5473255 -0.27767292
0002f0 df 82 59 3e 3b 38 e3 bf c9 51 ed 3e 19 1d b7 bf
       0.2124133 -1.7751535 0.4635146 -1.4305755
000300 e1 cc 0f 3e 20 32 e6 3d 8e 47 7b bf ce 18 f5 bd
       0.14042999 0.11240029 -0.9815606 -0.11967622
000310 ba 34 04 be 26 cd 1b 3e 00 12 43 3f 0c 63 87 3f
       -0.12910739 0.15214977 0.7619934 1.0577102
000320 56 99 0d 3d ac 1b 8d be df 87 c3 bd 8d 7a 08 c0
       0.03457006 -0.27560174 -0.095474 -2.13248
000330 58 40 35 3f 60 21 f4 3e 25 4f a8 3e 90 b8 71 3e
       0.70801306 0.47681713 0.32872882 0.23605561
000340 b9 4a e5 be 69 b0 a3 3d ee 42 b0 3e 97 e7 a2 3e
       -0.4478357 0.07992632 0.34426063 0.31817314
000350 bd 92 73 3e 67 f0 56 bf da 68 2a bf f7 d3 9a be
       0.23786445 -0.83960575 -0.6656624 -0.3023984
000360 34 02 38 3f 43 25 63 3d 16 17 61 be 3c b6 dc 3c
       0.7187836 0.055455457 -0.21981463 0.026942365

sequential_3/dense_9/MatMul f4 [20, 42]
000000 b8 cb d8 bd 74 39 98 3d 38 04 8d 3e 4c 61 c1 3f
       -0.10585731 0.07432833 0.2754228 1.5107818
000010 38 31 7f 3d 89 8e 43 3f f8 a2 07 bd c4 1e 1c 3f
       0.062302798 0.76389366 -0.033114403 0.60984445
000020 ec 30 86 bd 10 88 00 3f b8 7d 39 bd 79 2a 32 3e
       -0.065523 0.50207615 -0.04528591 0.17399015
000030 04 9b b5 3d c0 3f 19 3d 26 4d eb 3c 90 83 30 3e
       0.088674575 0.037414312 0.02872331 0.17237687
000040 c3 ed 29 bb ba f4 3d 3e 3b dc da 3d 71 a0 f7 bc
       -0.002592907 0.18550387 0.10686537 -0.030227872
000050 a1 43 4f 3d 85 3f 0b bf 94 d3 e0 bd 15 7c 9c bf
       0.050601605 -0.543938 -0.10977855 -1.2225367
000060 3f ed 36 be 01 98 68 be 8d a3 78 3c 31 09 a9 be
       -0.1786394 -0.22714235 0.015175712 -0.33014825
000070 06 6d 9a bd d2 75 3b bf a6 ad c3 3d b9 1c 4e bf
       -0.07540326 -0.73226655 0.09554605 -0.8051258
000080 46 5c d3 3b e5 d0 bf be 35 f6 0b 3b 20 da 54 bf
       0.006450209 -0.3746406 0.0021356468 -0.8314533
000090 03 fa 26 3c 78 06 0e bf 15 db 9d bc 13 11 68 be
       0.010191443 -0.5547862 -0.019269506 -0.22662763
0000a0 1d 1a e3 3d 5b 48 c0 3e b6 31 30 3e 20 d8 85 bd
       0.11088965 0.37555203 0.17206463 -0.06535363
0000b0 84 86 c8 3d 1b b0 80 3f c0 a8 8b 3c e4 70 eb 3e
       0.09791282 1.0053743 0.01704824 0.45984566
0000c0 c8 57 6e bd 93 50 ba 3e 8a 9e 8b bd 82 8b 83 3e
       -0.058189183 0.36389598 -0.06817348 0.25692374
0000d0 fb 21 2e bd 71 36 35 3e 46 b3 03 bd 3b 65 03 3e
       -0.042512875 0.17696549 -0.03215339 0.12831585
0000e0 70 89 13 bd 85 82 e8 3d 01 25 90 bd 2a 5a 3e 3d
       -0.036019742 0.113530196 -0.07038308 0.046472706
0000f0 53 37 9c bd 22 66 0e 3e 59 2b 06 bd 1c 9b 8e 3d
       -0.0762774 0.13906148 -0.032756183 0.069631785
000100 da 53 cb 3e e0 a1 c1 be 81 49 17 3f 94 47 c5 bf
       0.3971241 -0.37818813 0.59096533 -1.5412469
000110 1b 62 8b bc 42 8c 32 3e d3 ea 4f bd 91 2f 9e 3d
       -0.017014554 0.17436317 -0.050761055 0.07723916
000120 5d 1d b7 3d 54 4a a5 be 69 dc 9a 3e 00 c3 52 bf
       0.089411475 -0.3228327 0.30246285 -0.82328796
000130 88 64 fa bd 7a 91 46 3e 4c 67 28 3c cd fa 0f 3e
       -0.12226206 0.19391432 0.010278534 0.14060517
000140 c4 27 2e 3e 81 c3 0e 3e 55 2b da 3d 18 7c 03 3e
       0.17007357 0.13941766 0.10652796 0.12840307
000150 70 e5 e6 3d 7b ac 1a be 5a 8c 42 3e 54 ce dc 3d
       0.112742305 -0.15104859 0.18998852 0.107815415
000160 fb bf a2 3d f0 e0 7b 3d a1 b0 cc 3c d2 d0 96 3d
       0.079467736 0.061493814 0.024986567 0.07364048
000170 4b 19 f5 3c 84 b1 a3 3d d3 78 17 3d c7 bc 00 3e
       0.029919287 0.07992843 0.03698046 0.12572013
000180 a7 ba d9 3c 86 7f d9 3d 05 6d db 3c 90 c7 ce 3d
       0.02657826 0.10620026 0.026785383 0.10096657
000190 3f 6c 49 3d 41 8d 9b 3d f1 41 33 bd 5f e4 fb 3d
       0.049175497 0.075953014 -0.04376406 0.12299418
0001a0 06 41 dc 3b b5 92 e7 3d bd 0c 45 bd 62 db ff 3d
       0.0067216186 0.11307279 -0.04810785 0.12493016
0001b0 77 1f 32 bf 03 fe dc bf 31 bb 29 bc de e9 2d 3e
       -0.6957926 -1.7265018 -0.010359571 0.16983745
0001c0 99 29 77 3d 34 ac 0f 3e 78 12 bb 3d 47 38 f6 3d
       0.060342405 0.14030534 0.09134382 0.12022453
0001d0 94 9c f8 3d 99 2d 41 3e fc c2 fc bc bd c0 1e 3e
       0.1213924 0.1886505 -0.030854695 0.15503211
0001e0 ff 57 3b 3d f0 50 11 3e dd ea b2 3d 82 d8 0f 3e
       0.045738216 0.14191031 0.08736203 0.14047435
0001f0 04 02 af 3d 79 60 b7 3d 8c a9 9b bd 0e e4 87 3e
       0.08545306 0.089539476 -0.07600698 0.2654118
000200 b8 82 9f 3d 95 4a 0a 3e d1 88 23 3e e8 02 26 3e
       0.077886045 0.13505013 0.1597016 0.16212046
000210 82 5c d1 3e 7d ff 17 3e c3 a0 04 3f ef ab f2 3d
       0.4089089 0.14843555 0.518078 0.118492
000220 f3 8e b8 bc db a9 43 3d 8b 09 c5 3d 7a 27 28 3d
       -0.022529101 0.04776941 0.09620961 0.041053273
000230 b8 95 40 3e 57 31 c2 bb 48 ae 2d 3e 79 c1 b7 bd
       0.18807113 -0.005926292 0.16961014 -0.08972449
000240 25 e8 d0 bc 62 78 ac 3d 3f f1 9e ba 19 24 4e bc
       -0.02550132 0.08421399 -0.001212634 -0.012581849
000250 4f 38 a7 be 43 90 ab be 4a 95 a3 bf fa e9 a1 3b
       -0.32660148 -0.335085 -1.2779934 0.0049412223
000260 c9 c7 87 bc 40 1e 03 3e de a3 17 3c 1e 68 96 3d
       -0.016574757 0.12804508 0.009255378 0.073440775
000270 c4 16 f0 bd 72 d3 04 be 86 12 fa be db 86 22 bf
       -0.11723092 -0.12971285 -0.48842257 -0.63487023
000280 46 b5 7c 3c 91 f8 0e 3e b5 55 40 3c c4 55 9f 3d
       0.015424078 0.13962008 0.011739184 0.0778003
000290 9a 81 77 be 14 bd 26 be a4 78 37 bf e7 c6 f1 be
       -0.24170533 -0.16283065 -0.7166846 -0.47222063
0002a0 34 44 91 be f5 83 76 be eb 3c 50 be 6e 65 19 bf
       -0.28372347 -0.24073775 -0.20335738 -0.59920394
0002b0 32 de ef bd d3 fd e4 bd 65 da e9 bd 5a 45 96 3d
       -0.11712302 -0.11181226 -0.114186086 0.073374465
0002c0 60 d3 1f be 5d 13 ca bf e9 64 8c be d6 4f 74 3d
       -0.15607977 -1.5787159 -0.27420738 0.05964645
0002d0 0b c4 c0 bd a2 65 0a 3e e4 ea 1b 3d b5 de 59 3e
       -0.09412392 0.13515332 0.038065806 0.21276362
0002e0 11 79 c1 3d c5 db 29 3e 34 89 5a be 88 1a 5f 3c
       0.0944692 0.16587742 -0.21341401 0.013617165
0002f0 61 59 ea bd 95 e1 83 3c db 67 95 3d e8 74 7f 3d
       -0.11442829 0.016098777 0.072951995 0.06236735
000300 55 c6 24 3e be 75 a4 3d 70 a9 a9 be a2 bd b6 bd
       0.16091283 0.0803027 -0.33137083 -0.08922888
000310 97 6b f4 bd 48 dd 84 bc 97 52 80 3d bc 80 14 3e
       -0.11934584 -0.016218796 0.06265753 0.14502233
000320 6c 6a 45 3e 4e e4 84 3e fe f7 51 be 2a ef 64 be
       0.19278878 0.25955433 -0.20504758 -0.22356859
000330 e5 38 2c be 64 f6 5a bd b6 10 58 bd 9b 29 c5 3d
       -0.16818579 -0.053457633 -0.05275031 0.09627076
000340 15 1a d2 3d d1 f2 87 3e 7c f2 b8 3d ac d9 ab bd
       0.10258881 0.26552442 0.09030625 -0.08391127
000350 68 41 1c 3d 80 ee 64 3f 3f f7 59 3d ff 96 f7 3e
       0.038148314 0.8942642 0.053214308 0.48357388
000360 82 45 01 3d cd c6 b6 3e 67 64 93 3d 2f ea 8d 3e
       0.03156043 0.35698548 0.071968846 0.2771773
000370 0f 98 95 3d e0 06 86 bd af 37 c3 3b 2f 53 a3 bd
       0.073043935 -0.0654428 0.0059575657 -0.079748504
000380 88 b3 11 bc 92 97 32 be a5 b6 c8 bc 78 b4 7b be
       -0.008892901 -0.17440632 -0.024501154 -0.24580562
000390 66 b7 4c 3d 41 88 03 3d 3b cd 3c bd 5d 20 1d 3e
       0.04997959 0.032112364 -0.04609416 0.15344377
0003a0 c9 84 94 bd 12 93 8b 3e 73 b8 f1 bc 0b 0e 65 3e
       -0.07251889 0.27260643 -0.029506898 0.22368638
0003b0 7c b7 e8 bc 61 60 f6 3d 72 af 85 bd d3 09 fa 3d
       -0.028407805 0.120301016 -0.06527604 0.12208905
0003c0 fe b9 13 3e 41 ab 43 be 23 30 97 3e 51 96 c8 be
       0.14426419 -0.19108297 0.29528913 -0.39177182
0003d0 2f a7 06 be 89 a3 6b 3e 6f d3 af bd f4 d8 f7 3d
       -0.13149713 0.23011602 -0.0858525 0.121019274
0003e0 88 14 e3 3d 0c 36 a1 be f8 b6 5b 3e a1 cc f1 bf
       0.110879004 -0.31486547 0.21456516 -1.8890573
0003f0 08 31 a1 3d 08 48 8b 3e 05 99 71 3b 79 7b 73 be
       0.0787068 0.27203393 0.0036864888 -0.2377757
